…
I1024 20:03:35.258357  4475 net.cpp:322] The NetState phase (0) differed from the phase (1) specified by a rule in layer mnist
I1024 20:03:35.258373  4475 net.cpp:322] The NetState phase (0) differed from the phase (1) specified by a rule in layer accuracy
I1024 20:03:35.258462  4475 net.cpp:57] Initializing net from parameters: 
name: "LeNet"
state {
  phase: TRAIN
  level: 0
  stage: ""
}
layer {
  name: "mnist"
  type: "Data"
  top: "data"
  top: "label"
  include {
    phase: TRAIN
  }
  transform_param {
    scale: 0.00390625
  }
  data_param {
    source: "examples/mnist/mnist_train_lmdb"
    batch_size: 64
    backend: LMDB
  }
}
layer {
  name: "conv1"
  type: "Convolution"
  bottom: "data"
  top: "conv1"
  param {
    lr_mult: 1
  }
  param {
    lr_mult: 2
  }
  convolution_param {
    num_output: 20
    kernel_size: 5
    stride: 1
    weight_filler {
      type: "xavier"
    }
    bias_filler {
      type: "constant"
    }
  }
}
layer {
  name: "pool1"
  type: "Pooling"
  bottom: "conv1"
  top: "pool1"
  pooling_param {
    pool: MAX
    kernel_size: 2
    stride: 2
  }
}
layer {
  name: "conv2"
  type: "Convolution"
  bottom: "pool1"
  top: "conv2"
  param {
    lr_mult: 1
  }
  param {
    lr_mult: 2
  }
  convolution_param {
    num_output: 50
    kernel_size: 5
    stride: 1
    weight_filler {
      type: "xavier"
    }
    bias_filler {
      type: "constant"
    }
  }
}
layer {
  name: "pool2"
  type: "Pooling"
  bottom: "conv2"
  top: "pool2"
  pooling_param {
    pool: MAX
    kernel_size: 2
    stride: 2
  }
}
layer {
  name: "ip1"
  type: "InnerProduct"
  bottom: "pool2"
  top: "ip1"
  param {
    lr_mult: 1
  }
  param {
    lr_mult: 2
  }
  inner_product_param {
    num_output: 500
    weight_filler {
      type: "xavier"
    }
    bias_filler {
      type: "constant"
    }
  }
}
layer {
  name: "relu1"
  type: "ReLU"
  bottom: "ip1"
  top: "ip1"
}
layer {
  name: "ip2"
  type: "InnerProduct"
  bottom: "ip1"
  top: "ip2"
  param {
    lr_mult: 1
  }
  param {
    lr_mult: 2
  }
  inner_product_param {
    num_output: 10
    weight_filler {
      type: "xavier"
    }
    bias_filler {
      type: "constant"
    }
  }
}
layer {
  name: "loss"
  type: "SoftmaxWithLoss"
  bottom: "ip2"
  bottom: "label"
  top: "loss"
}
I1024 20:03:35.258522  4475 layer_factory.cpp:67] Creating layer mnist
I1024 20:03:35.258652  4475 db_lmdb.cpp:40] Opened lmdb examples/mnist/mnist_train_lmdb
I1024 20:03:35.258684  4475 net.cpp:96] Creating Layer mnist
I1024 20:03:35.258697  4475 net.cpp:413] mnist -> data
I1024 20:03:35.258729  4475 net.cpp:413] mnist -> label
I1024 20:03:35.258779  4475 data_layer.cpp:46] output data size: 64,1,28,28
I1024 20:03:35.260165  4475 net.cpp:134] Setting up mnist
I1024 20:03:35.260186  4475 net.cpp:142] Top shape: 64 1 28 28 (50176)
I1024 20:03:35.260195  4475 net.cpp:142] Top shape: 64 (64)
I1024 20:03:35.260208  4475 layer_factory.cpp:67] Creating layer conv1
I1024 20:03:35.260241  4475 net.cpp:96] Creating Layer conv1
I1024 20:03:35.260249  4475 net.cpp:444] conv1 <- data
I1024 20:03:35.260274  4475 net.cpp:413] conv1 -> conv1
I1024 20:03:35.261426  4475 net.cpp:134] Setting up conv1
I1024 20:03:35.261445  4475 net.cpp:142] Top shape: 64 20 24 24 (737280)
I1024 20:03:35.261488  4475 layer_factory.cpp:67] Creating layer pool1
I1024 20:03:35.261507  4475 net.cpp:96] Creating Layer pool1
I1024 20:03:35.261512  4475 net.cpp:444] pool1 <- conv1
I1024 20:03:35.261520  4475 net.cpp:413] pool1 -> pool1
I1024 20:03:35.261987  4475 net.cpp:134] Setting up pool1
I1024 20:03:35.262002  4475 net.cpp:142] Top shape: 64 20 12 12 (184320)
I1024 20:03:35.262013  4475 layer_factory.cpp:67] Creating layer conv2
I1024 20:03:35.262022  4475 net.cpp:96] Creating Layer conv2
I1024 20:03:35.262028  4475 net.cpp:444] conv2 <- pool1
I1024 20:03:35.262037  4475 net.cpp:413] conv2 -> conv2
I1024 20:03:35.263414  4475 net.cpp:134] Setting up conv2
I1024 20:03:35.263432  4475 net.cpp:142] Top shape: 64 50 8 8 (204800)
I1024 20:03:35.263448  4475 layer_factory.cpp:67] Creating layer pool2
I1024 20:03:35.263458  4475 net.cpp:96] Creating Layer pool2
I1024 20:03:35.263463  4475 net.cpp:444] pool2 <- conv2
I1024 20:03:35.263471  4475 net.cpp:413] pool2 -> pool2
I1024 20:03:35.263906  4475 net.cpp:134] Setting up pool2
I1024 20:03:35.263921  4475 net.cpp:142] Top shape: 64 50 4 4 (51200)
I1024 20:03:35.263931  4475 layer_factory.cpp:67] Creating layer ip1
I1024 20:03:35.263940  4475 net.cpp:96] Creating Layer ip1
I1024 20:03:35.263947  4475 net.cpp:444] ip1 <- pool2
I1024 20:03:35.263954  4475 net.cpp:413] ip1 -> ip1
I1024 20:03:35.271018  4475 net.cpp:134] Setting up ip1
I1024 20:03:35.271029  4475 net.cpp:142] Top shape: 64 500 (32000)
I1024 20:03:35.271044  4475 layer_factory.cpp:67] Creating layer relu1
I1024 20:03:35.271052  4475 net.cpp:96] Creating Layer relu1
I1024 20:03:35.271057  4475 net.cpp:444] relu1 <- ip1
I1024 20:03:35.271064  4475 net.cpp:400] relu1 -> ip1 (in-place)
I1024 20:03:35.271073  4475 net.cpp:134] Setting up relu1
I1024 20:03:35.271080  4475 net.cpp:142] Top shape: 64 500 (32000)
I1024 20:03:35.271086  4475 layer_factory.cpp:67] Creating layer ip2
I1024 20:03:35.271093  4475 net.cpp:96] Creating Layer ip2
I1024 20:03:35.271098  4475 net.cpp:444] ip2 <- ip1
I1024 20:03:35.271106  4475 net.cpp:413] ip2 -> ip2
I1024 20:03:35.271222  4475 net.cpp:134] Setting up ip2
I1024 20:03:35.271229  4475 net.cpp:142] Top shape: 64 10 (640)
I1024 20:03:35.271239  4475 layer_factory.cpp:67] Creating layer loss
I1024 20:03:35.271253  4475 net.cpp:96] Creating Layer loss
I1024 20:03:35.271258  4475 net.cpp:444] loss <- ip2
I1024 20:03:35.271263  4475 net.cpp:444] loss <- label
I1024 20:03:35.271272  4475 net.cpp:413] loss -> loss
I1024 20:03:35.271283  4475 layer_factory.cpp:67] Creating layer loss
I1024 20:03:35.271318  4475 net.cpp:134] Setting up loss
…
I1024 20:03:35.271555  4475 solver.cpp:194] Creating test net (#0) specified by net file: examples/mnist/lenet_train_test.prototxt
I1024 20:03:35.271592  4475 net.cpp:322] The NetState phase (1) differed from the phase (0) specified by a rule in layer mnist
I1024 20:03:35.271701  4475 net.cpp:57] Initializing net from parameters: 
name: "LeNet"
state {
  phase: TEST
}
layer {
  name: "mnist"
  type: "Data"
  top: "data"
  top: "label"
  include {
    phase: TEST
  }
  transform_param {
    scale: 0.00390625
  }
  data_param {
    source: "examples/mnist/mnist_test_lmdb"
    batch_size: 100
    backend: LMDB
  }
}
layer {
  name: "conv1"
  type: "Convolution"
  bottom: "data"
  top: "conv1"
  param {
    lr_mult: 1
  }
  param {
    lr_mult: 2
  }
  convolution_param {
    num_output: 20
    kernel_size: 5
    stride: 1
    weight_filler {
      type: "xavier"
    }
    bias_filler {
      type: "constant"
    }
  }
}
layer {
  name: "pool1"
  type: "Pooling"
  bottom: "conv1"
  top: "pool1"
  pooling_param {
    pool: MAX
    kernel_size: 2
    stride: 2
  }
}
layer {
  name: "conv2"
  type: "Convolution"
  bottom: "pool1"
  top: "conv2"
  param {
    lr_mult: 1
  }
  param {
    lr_mult: 2
  }
  convolution_param {
    num_output: 50
    kernel_size: 5
    stride: 1
    weight_filler {
      type: "xavier"
    }
    bias_filler {
      type: "constant"
    }
  }
}
layer {
  name: "pool2"
  type: "Pooling"
  bottom: "conv2"
  top: "pool2"
  pooling_param {
    pool: MAX
    kernel_size: 2
    stride: 2
  }
}
layer {
  name: "ip1"
  type: "InnerProduct"
  bottom: "pool2"
  top: "ip1"
  param {
    lr_mult: 1
  }
  param {
    lr_mult: 2
  }
  inner_product_param {
    num_output: 500
    weight_filler {
      type: "xavier"
    }
    bias_filler {
      type: "constant"
    }
  }
}
layer {
  name: "relu1"
  type: "ReLU"
  bottom: "ip1"
  top: "ip1"
}
layer {
  name: "ip2"
  type: "InnerProduct"
  bottom: "ip1"
  top: "ip2"
  param {
    lr_mult: 1
  }
  param {
    lr_mult: 2
  }
  inner_product_param {
    num_output: 10
    weight_filler {
      type: "xavier"
    }
    bias_filler {
      type: "constant"
    }
  }
}
layer {
  name: "accuracy"
  type: "Accuracy"
  bottom: "ip2"
  bottom: "label"
  top: "accuracy"
  include {
    phase: TEST
  }
}
layer {
  name: "loss"
  type: "SoftmaxWithLoss"
  bottom: "ip2"
  bottom: "label"
  top: "loss"
}
I1024 20:03:35.271787  4475 layer_factory.cpp:67] Creating layer mnist
I1024 20:03:35.271850  4475 db_lmdb.cpp:40] Opened lmdb examples/mnist/mnist_test_lmdb
I1024 20:03:35.271868  4475 net.cpp:96] Creating Layer mnist
I1024 20:03:35.271876  4475 net.cpp:413] mnist -> data
I1024 20:03:35.271888  4475 net.cpp:413] mnist -> label
I1024 20:03:35.271908  4475 data_layer.cpp:46] output data size: 100,1,28,28
I1024 20:03:35.274313  4475 net.cpp:134] Setting up mnist
I1024 20:03:35.274333  4475 net.cpp:142] Top shape: 100 1 28 28 (78400)
I1024 20:03:35.274339  4475 net.cpp:142] Top shape: 100 (100)
I1024 20:03:35.274350  4475 layer_factory.cpp:67] Creating layer label_mnist_1_split
I1024 20:03:35.274359  4475 net.cpp:96] Creating Layer label_mnist_1_split
I1024 20:03:35.274364  4475 net.cpp:444] label_mnist_1_split <- label
I1024 20:03:35.274374  4475 net.cpp:413] label_mnist_1_split -> label_mnist_1_split_0
I1024 20:03:35.274384  4475 net.cpp:413] label_mnist_1_split -> label_mnist_1_split_1
I1024 20:03:35.274404  4475 net.cpp:134] Setting up label_mnist_1_split
I1024 20:03:35.274412  4475 net.cpp:142] Top shape: 100 (100)
I1024 20:03:35.274420  4475 net.cpp:142] Top shape: 100 (100)
I1024 20:03:35.274427  4475 layer_factory.cpp:67] Creating layer conv1
I1024 20:03:35.274437  4475 net.cpp:96] Creating Layer conv1
I1024 20:03:35.274442  4475 net.cpp:444] conv1 <- data
I1024 20:03:35.274451  4475 net.cpp:413] conv1 -> conv1
I1024 20:03:35.275569  4475 net.cpp:134] Setting up conv1
I1024 20:03:35.275586  4475 net.cpp:142] Top shape: 100 20 24 24 (1152000)
I1024 20:03:35.275604  4475 layer_factory.cpp:67] Creating layer pool1
I1024 20:03:35.275614  4475 net.cpp:96] Creating Layer pool1
I1024 20:03:35.275619  4475 net.cpp:444] pool1 <- conv1
I1024 20:03:35.275626  4475 net.cpp:413] pool1 -> pool1
I1024 20:03:35.276090  4475 net.cpp:134] Setting up pool1
I1024 20:03:35.276108  4475 net.cpp:142] Top shape: 100 20 12 12 (288000)
I1024 20:03:35.276127  4475 layer_factory.cpp:67] Creating layer conv2
I1024 20:03:35.276140  4475 net.cpp:96] Creating Layer conv2
I1024 20:03:35.276146  4475 net.cpp:444] conv2 <- pool1
I1024 20:03:35.276165  4475 net.cpp:413] conv2 -> conv2
I1024 20:03:35.277756  4475 net.cpp:134] Setting up conv2
I1024 20:03:35.277776  4475 net.cpp:142] Top shape: 100 50 8 8 (320000)
I1024 20:03:35.277793  4475 layer_factory.cpp:67] Creating layer pool2
I1024 20:03:35.277806  4475 net.cpp:96] Creating Layer pool2
I1024 20:03:35.277810  4475 net.cpp:444] pool2 <- conv2
I1024 20:03:35.277818  4475 net.cpp:413] pool2 -> pool2
I1024 20:03:35.278264  4475 net.cpp:134] Setting up pool2
I1024 20:03:35.278280  4475 net.cpp:142] Top shape: 100 50 4 4 (80000)
I1024 20:03:35.278290  4475 layer_factory.cpp:67] Creating layer ip1
I1024 20:03:35.278298  4475 net.cpp:96] Creating Layer ip1
I1024 20:03:35.278303  4475 net.cpp:444] ip1 <- pool2
I1024 20:03:35.278312  4475 net.cpp:413] ip1 -> ip1
I1024 20:03:35.285425  4475 net.cpp:134] Setting up ip1
I1024 20:03:35.285440  4475 net.cpp:142] Top shape: 100 500 (50000)
I1024 20:03:35.285454  4475 layer_factory.cpp:67] Creating layer relu1
I1024 20:03:35.285462  4475 net.cpp:96] Creating Layer relu1
I1024 20:03:35.285467  4475 net.cpp:444] relu1 <- ip1
I1024 20:03:35.285475  4475 net.cpp:400] relu1 -> ip1 (in-place)
I1024 20:03:35.285481  4475 net.cpp:134] Setting up relu1
I1024 20:03:35.285488  4475 net.cpp:142] Top shape: 100 500 (50000)
I1024 20:03:35.285495  4475 layer_factory.cpp:67] Creating layer ip2
I1024 20:03:35.285502  4475 net.cpp:96] Creating Layer ip2
I1024 20:03:35.285507  4475 net.cpp:444] ip2 <- ip1
I1024 20:03:35.285514  4475 net.cpp:413] ip2 -> ip2
I1024 20:03:35.285631  4475 net.cpp:134] Setting up ip2
I1024 20:03:35.285639  4475 net.cpp:142] Top shape: 100 10 (1000)
I1024 20:03:35.285648  4475 layer_factory.cpp:67] Creating layer ip2_ip2_0_split
I1024 20:03:35.285655  4475 net.cpp:96] Creating Layer ip2_ip2_0_split
I1024 20:03:35.285660  4475 net.cpp:444] ip2_ip2_0_split <- ip2
I1024 20:03:35.285667  4475 net.cpp:413] ip2_ip2_0_split -> ip2_ip2_0_split_0
I1024 20:03:35.285675  4475 net.cpp:413] ip2_ip2_0_split -> ip2_ip2_0_split_1
I1024 20:03:35.285692  4475 net.cpp:134] Setting up ip2_ip2_0_split
I1024 20:03:35.285698  4475 net.cpp:142] Top shape: 100 10 (1000)
I1024 20:03:35.285704  4475 net.cpp:142] Top shape: 100 10 (1000)
I1024 20:03:35.285710  4475 layer_factory.cpp:67] Creating layer accuracy
I1024 20:03:35.285719  4475 net.cpp:96] Creating Layer accuracy
I1024 20:03:35.285723  4475 net.cpp:444] accuracy <- ip2_ip2_0_split_0
I1024 20:03:35.285729  4475 net.cpp:444] accuracy <- label_mnist_1_split_0
I1024 20:03:35.285737  4475 net.cpp:413] accuracy -> accuracy
I1024 20:03:35.285751  4475 net.cpp:134] Setting up accuracy
…
